homework/7.9hw/CIFAR-10/model.pth (torch, 89871 bytes, 8 tensors)

conv1.weight f4 [10, 1, 5, 5]
0	0xbd840e70	-0.06448066
1	0x3e544a97	0.20731579
2	0x3de93151	0.113863595
3	0x3e766304	0.24061209
4	0x3e9afaa7	0.30269358
5	0x3ea09fff	0.31372067
6	0x3ee80e10	0.4532323
7	0x3e69c855	0.22830327
8	0x3dd8044d	0.10547695
9	0xbd9c2737	-0.07624667
10	0xbe16413c	-0.14673322
11	0xbd88f82a	-0.066879585
12	0x3e02a22f	0.1275718
13	0x3af73b55	0.0018862287
14	0xbe562a19	-0.20914496
15	0xbdccdfa9	-0.10003597
16	0xbe8f185f	-0.2794828
17	0xbe83194a	-0.25605232
18	0xbeb3f491	-0.35147527
19	0xbe9b63a6	-0.30349463
20	0xbdc24602	-0.09486009
21	0xbea12a4e	-0.31477588
22	0xbede0c9a	-0.4336899
23	0xbe94a22f	-0.29029986
24	0xbdac1c0b	-0.08403786
25	0x3e167a44	0.14695078
26	0x3e606a24	0.2191549
27	0x3eaf244d	0.34207383
28	0xbd79135e	-0.060809486
29	0xbe2b9460	-0.1675582
30	0xbe4c8e55	-0.1997617
31	0xbd9d7e91	-0.07690156
32	0x3eca0db3	0.39463577
33	0x3ed630db	0.4183415
34	0x3dcbd087	0.09951883
35	0xbe637afd	-0.22214885
36	0xbda55d70	-0.080744624
37	0x3d4b61a3	0.04965366
38	0x3edaaee8	0.42711568
39	0x3ed64958	0.41852832
40	0xbedadc36	-0.42746133
41	0xbe887412	-0.26651055
42	0xbe8b449d	-0.27200785
43	0xbe1b51e4	-0.15167958
44	0x3e70e1f4	0.23523694
45	0xbd992801	-0.07478333
46	0xbe98b66c	-0.29826677
47	0xbea1cb38	-0.31600356
48	0xbeb13899	-0.34613493
49	0x3c651517	0.013982079
50	0x3e73a3cc	0.23792952
51	0x3e9ed2c6	0.31020182
52	0xbd11421d	-0.03546344
53	0xbc91895d	-0.017765695
54	0x3e481989	0.19540991
55	0xbdb15811	-0.086593755
56	0x3dc9c16e	0.09851347
57	0x3dd35d24	0.103204995
58	0x3ca40e25	0.020026276
59	0x3e050956	0.12991843
60	0xbe7b9f9e	-0.24572608
61	0x3d483252	0.048876114
62	0x3e189894	0.14901954
63	0x3e138037	0.14404379
64	0xbdfc632c	-0.12323603
65	0xbe71cb1e	-0.2361264
66	0x3e3ca9e0	0.18424177
67	0x3da485ee	0.080333576
68	0x3dee2f10	0.1163007
69	0xbdfdbcac	-0.12389502
70	0xbe049576	-0.1294764
71	0x3e5468a6	0.20743045
72	0x3df2b33b	0.11850592
73	0xbe07e1bb	-0.13269703
74	0xbeb934bf	-0.36173055
75	0x3dacee14	0.08443847
76	0xbf1cbf54	-0.61229444
77	0xbf1e4fb6	-0.6184038
78	0xbd2d3fe7	-0.04229727
79	0xbd068c3d	-0.032848585
80	0x3f1d92ad	0.61551934
81	0x3de63e1c	0.11242315
82	0xbf2bb6e7	-0.6707596
83	0x3e2fb5b9	0.17159165
84	0x3c44358b	0.011975656
85	0x3ebf98e1	0.37421325
86	0x3ecedd3e	0.4040317
87	0xbe7bb886	-0.24582109
88	0x3dca344b	0.09873255
89	0x3d51d72c	0.051230595
90	0xbd87a235	-0.066227354
91	0x3e09a995	0.13443597
92	0xbdb429bd	-0.087970234
93	0xbe25da27	-0.161965
94	0xbc979c9a	-0.01850729
95	0x3d34cb61	0.04413927
96	0x3ebcfb7f	0.36910626
97	0x3d390bb5	0.04517718
98	0x3cbe7444	0.0232488
99	0x3e07d541	0.13264944
100	0xbe59c91f	-0.21268128
101	0xbed48760	-0.41509533
102	0xbd77711f	-0.060410615
103	0x3d48630a	0.048922576
104	0x3eb96ee0	0.36217403
105	0xbe22470a	-0.15847412
106	0x3e2ff3ba	0.17182818
107	0x3ee6b806	0.45062274
108	0x3eb9aaae	0.3626303
109	0xbe517a5a	-0.2045683
110	0x3e48ee8c	0.19622248
111	0x3e6e52e7	0.23273812
112	0x3d7fd561	0.062459353
113	0x3e6e541e	0.23274276
114	0xbea885eb	-0.3291467
115	0x3e513609	0.20430769
116	0xbe5e0a8c	-0.21683711
117	0xbe7140f7	-0.23559938
118	0x3e22f4c9	0.1591369
119	0xbca93fd9	-0.020660328
120	0xbe7c3b39	-0.24631967
121	0xbf07f7b7	-0.5311236
122	0xbeb7e11c	-0.35913932
123	0x3d78c986	0.060739063
124	0x3e76160a	0.24031845
125	0x3e353b73	0.1769846
126	0xbce8fc5d	-0.028440649
127	0x3d98fb7a	0.0746984
128	0x3e74cbaf	0.23905824
129	0x3e8a5613	0.27018794
130	0x3ddfe5ed	0.10932527
131	0x3e9c7af6	0.30562562
132	0x3e365921	0.17807437
133	0x3dd8be08	0.105831206
134	0xbf09829d	-0.53714925
135	0xbe5e520d	-0.21710987
136	0xbeab2b46	-0.33431453
137	0xbe81c882	-0.25348288
138	0xbee909a9	-0.45515183
139	0xbe882de0	-0.265975
140	0xbdee83ec	-0.11646256
141	0xbea043e9	-0.3130181
142	0x3daf3432	0.08554877
143	0x3e40c67e	0.18825719
144	0x3ed6eeec	0.41979158
145	0x3ed9a599	0.42509153
146	0x3db6814f	0.089113824
147	0x3ea6a10b	0.3254474
148	0x3d1ee65c	0.038793907
149	0xbd86bfb8	-0.06579536
150	0xbe212f4f	-0.15740703
151	0xbed1fff1	-0.4101558
152	0xbea4c623	-0.32182416
153	0x3c4189a0	0.0118125975
154	0x3c7637ef	0.015027984
155	0xbf1caec3	-0.61204165
156	0xbe2de76c	-0.16982812
157	0x3e3a0bc5	0.18168552
158	0x3e4793d1	0.19489981
159	0x3ede4e19	0.4341896
160	0xbef33acf	-0.47505805
161	0x3cefc767	0.029269887
162	0xbd3e7ebb	-0.04650758
163	0x3e89cd15	0.26914278
164	0x3de79abf	0.11308812
165	0xbe5e855d	-0.21730562
166	0xbd713690	-0.058889925
167	0x3e11fab7	0.14255796
168	0x3e3081ce	0.17237017
169	0x3d4187a6	0.047248505
170	0xbdaeeb27	-0.085409455
171	0xbbc93c1b	-0.0061411983
172	0x3e006ab2	0.12540701
173	0x3da55f64	0.08074835
174	0x3e0ac032	0.13549879
175	0x3c1afabf	0.009459197
176	0xbc903d11	-0.017607244
177	0x3e269cae	0.16270706
178	0xbe46536d	-0.19367762
179	0xbd505aff	-0.05086803
180	0xbd5a1fe9	-0.05325309
181	0xbc99e5ce	-0.018786337
182	0xbf01e743	-0.507435
183	0xbee74b0a	-0.45174438
184	0xbec9b1e7	-0.3939354
185	0xbcda7a84	-0.026669748
186	0x3e2c0158	0.16797388
187	0xbe461eb3	-0.19347648
188	0xbe465b31	-0.19370724
189	0x3e04212f	0.12903284
190	0x3e4cbfbf	0.1999502
191	0xbdffaf20	-0.12484574
192	0x3eaff2cf	0.34364936
193	0x3eeeab31	0.46614984
194	0x3ee36fb1	0.4442115
195	0xbe28e473	-0.16493396
196	0x3a6ed6a6	0.00091109646
197	0x3d49b9d8	0.0492495
198	0x3ee0d11b	0.43909535
199	0xbd403667	-0.046926882
200	0x3e0c8ab2	0.13724783
201	0x3e217ed9	0.15771045
202	0xbe4cd047	-0.20001327
203	0xbd53fe77	-0.05175635
204	0xbe189ef9	-0.14904393
205	0x3e785eaf	0.24254869
206	0x3e3e5448	0.18586838
207	0x3c54265e	0.012948601
208	0xbea6362e	-0.3246321
209	0xbec206d7	-0.37895843
210	0x3e77ac49	0.24186815
211	0x3ef78308	0.48342156
212	0xbe850d75	-0.2598683
213	0xbebb6d6d	-0.36606923
214	0xbebe7350	-0.3719735
215	0x3ed06a8c	0.4070629
216	0x3d5e0f24	0.054213658
217	0x3e019ba2	0.12657025
218	0xbe27cf4a	-0.16387668
219	0xbd9b21e7	-0.07574826
220	0xbcf421b1	-0.029801222
221	0x3dae708c	0.0851756
222	0x3cc56505	0.024096021
223	0x3c003199	0.007824325
224	0x3be128be	0.006871312
225	0x3d347700	0.0440588
226	0x3d7e5971	0.062097017
227	0x3cd2fab7	0.025754316
228	0x3e54e1d8	0.20789278
229	0x3e87184f	0.26385733
230	0xbf1a8671	-0.6036139
231	0xbd9a79b5	-0.07542745
232	0x3d5f1f65	0.0544733
233	0x3e45f99c	0.193335
234	0x3e5b1016	0.21392855
235	0xbefe206b	-0.49634108
236	0xbf6343e2	-0.88775456
237	0xbf0cc682	-0.549904
238	0xbdb5bfeb	-0.08874496
239	0x3e926a26	0.2859661
240	0x3e66b286	0.22529039
241	0xbeb86460	-0.3601408
242	0xbf3ba358	-0.7329612
243	0xbf2ffef5	-0.6874841
244	0xbf1a9f45	-0.60399276
245	0x3ed9582d	0.42450085
246	0x3e924f07	0.28575918
247	0x3c417331	0.011807249
248	0xbe782650	-0.24233365
249	0xbeb83222	-0.35975748

conv1.bias f4 [10]
0	0xbed389d5	-0.41316095
1	0xbea1f7eb	-0.3163446
2	0xbe3f2ba1	-0.18668987
3	0xbe4fbf06	-0.20287713
4	0xbe659281	-0.22419168
5	0xbebf1d6d	-0.37327138
6	0xbda544a4	-0.08069733
7	0xbe0d3ff8	-0.13793933
8	0xbe616298	-0.22010267
9	0xbea1f4aa	-0.31631976

conv2.weight f4 [20, 10, 5, 5]
0	0x3e0e95f9	0.13924398
1	0xbc35320a	-0.0110592935
2	0x3ddfac31	0.10921515
3	0xbe1e1859	-0.15438975
4	0xbe2bb666	-0.16768798
5	0x3c8e1395	0.017343322
6	0x3dd33ba9	0.10314114
7	0x3dded96b	0.10881313
8	0x3baf661c	0.0053527486
9	0x3c932cae	0.01796564
10	0x3e0068c4	0.12539965
11	0xbdaa0d94	-0.08303371
12	0xbd412452	-0.04715378
13	0x3e046e50	0.12932706
14	0x3dcf3dff	0.10119247
15	0x3db9ddb0	0.09075487
16	0xbe190a86	-0.1494542
17	0x3d5aa972	0.053384252
18	0x3d729d25	0.059231896
19	0xbe2b8f24	-0.16753823
20	0xbcd9f0c9	-0.026604073
21	0x3d5d90fe	0.054093353
22	0xbe0eae1a	-0.13933602
23	0xbde23641	-0.11045504
24	0xbe14d662	-0.14534906
25	0xbe042acc	-0.1290695
26	0xbd5aa2a1	-0.05337775
27	0xbda68c69	-0.0813225
28	0xbd8efd66	-0.06981926
29	0x3d001d5b	0.031277996
30	0x3b6ed4ea	0.0036442825
31	0xbe723fd8	-0.23657167
32	0xbe204706	-0.15652093
33	0xbd902538	-0.07038349
34	0xbd1f17c3	-0.03884102
35	0xbc313fe9	-0.01081846
36	0xbe422077	-0.18957697
37	0xbe5cccba	-0.21562472
38	0xbdf9ca99	-0.121968456
39	0xbe6f378f	-0.23361038
40	0xbdc3d9c9	-0.095630236
41	0xbe202686	-0.15639696
42	0xbdf01e51	-0.117245324
43	0xbe86f4da	-0.26358682
44	0xbe607e2d	-0.21923132
45	0xbe8d6b70	-0.2762103
46	0xbb88b834	-0.0041723493
47	0xbda63d3a	-0.08117147
48	0xbdccaf3b	-0.0999436
49	0x3e05b893	0.1305869
50	0x3e16dc9c	0.14732593
51	0xbd751e94	-0.059843615
52	0xbd75ad89	-0.05997995
53	0x3ceb3490	0.028711587
54	0x3d8a28de	0.06746076
55	0x3e262474	0.16224843
56	0x3ccb4cd0	0.0248169
57	0x3cd3c18d	0.025849128
58	0x3e116dd6	0.14202055
59	0x3e1c4f7b	0.15264694
60	0x3d2bdd2f	0.041958984
61	0xbcbcd3bf	-0.023050187
62	0x3d5c2829	0.053749237
63	0x3cf9c0b2	0.030487392
64	0x3e053df2	0.13011912
65	0xbdc548f5	-0.09633056
66	0x3dcb4f52	0.099272385
67	0xbceede6c	-0.029158793
68	0xbd5eaab7	-0.054362025
69	0xbe1a59e0	-0.15073347
70	0xbe897d09	-0.26853207
71	0xbe22bcd4	-0.15892345
72	0x3ab097ef	0.0013473014
73	0x3c811d42	0.015761022
74	0x3c140e5d	0.009036628
75	0xbd7194c6	-0.058979772
76	0xbc92dd72	-0.017927859
77	0x3e259a09	0.16172041
78	0xbd58e646	-0.05295398
79	0xbe29e34d	-0.16590615
80	0xbd2441df	-0.040101882
81	0xbe8070b7	-0.25085995
82	0xbcabf474	-0.020990588
83	0xbe0016ca	-0.12508693
84	0xbe38985f	-0.18026875
85	0xbe009486	-0.12556657
86	0xbe3881b5	-0.1801823
87	0x3d68ea7b	0.056864243
88	0xbdbbaa4e	-0.091633424
89	0xbcaca72d	-0.02107581
90	0xb82e343f	-4.153349e-05
91	0x3d5f5585	0.054524917
92	0x3d057112	0.032578535
93	0xba1f737e	-0.00060825783
94	0xbdab2d73	-0.08358278
95	0xbb61b601	-0.0034440758
96	0xbdc26a10	-0.09492886
97	0xbe1e18ee	-0.15439197
98	0x3c165c3a	0.009177262
99	0x3df9974a	0.12187059
100	0xbd22cced	-0.039746214
101	0xbdf8fadd	-0.121572234
102	0xbde1911c	-0.110140055
103	0xbe446784	-0.19180113
104	0x3c6274a1	0.013821752
105	0x3d4c799f	0.049920674
106	0xbe2c40a9	-0.16821541
107	0xbdbfd90d	-0.09367571
108	0xbca2392c	-0.019802652
109	0x3d6d5838	0.05794546
110	0x3e2c6b5b	0.16837828
111	0xbe84e07a	-0.25952512
112	0xbd53b5e7	-0.051687147
113	0x3e420e47	0.18950759
114	0x3e07fd64	0.13280255
115	0x3c29b0a8	0.01035706
116	0xbbb0e363	-0.0053982004
117	0xbcabf1d9	-0.020989345
118	0x3e276b82	0.16349605
119	0x3d7f62a3	0.062349927
120	0x3aa8b2b3	0.0012870639
121	0xbc9964a8	-0.018724754
122	0xbe0fb122	-0.14032415
123	0xbcba0ef4	-0.022712208
124	0xbcd32ac8	-0.025777236
125	0xbd08de98	-0.033415407
126	0xbe7c825f	-0.24659108
127	0xbdff2dc5	-0.12459902
128	0xbd6996aa	-0.05702845
129	0xbd7599b8	-0.05996105
130	0xbd9169dd	-0.0710027
131	0xbdf0f1af	-0.117648475
132	0x3cd85d02	0.026411537
133	0xbe281ced	-0.16417284
134	0xbaa84006	-0.0012836463
135	0xbe042f1d	-0.12908597
136	0xbde4b8b3	-0.11168041
137	0x3c27aa60	0.010233492
138	0xbd414758	-0.04718718
139	0xbd1396ce	-0.03603249
140	0x3dad3d1d	0.08458922
141	0xbe4ae6c2	-0.1981459
142	0xbe51d4fb	-0.20491402
143	0xbdb51a8a	-0.088429525
144	0x3de60293	0.1123096
145	0xbd97fc0a	-0.074211195
146	0xbe03bc74	-0.12864858
147	0xbc992fe8	-0.018699601
148	0x3de05f3c	0.109556645
149	0x3c896b73	0.016774869
150	0x3daa58ab	0.08317693
151	0x3eadf779	0.3397787
152	0x3d8c2346	0.068426654
153	0xbe60580b	-0.21908586
154	0xbe4096c8	-0.18807518
155	0x3e84e5fe	0.2595672
156	0x3e404672	0.18776873
157	0x3e406292	0.18787602
158	0x3d5a0248	0.05322483
159	0x3e286151	0.16443373
160	0x3e1a2619	0.15053596
161	0x3e72508d	0.2366354
162	0x3e2f8838	0.17141807
163	0x3deaef55	0.1147143
164	0x3e491c47	0.19639693
165	0x3e1a196f	0.15048765
166	0xbbfb315e	-0.007665797
167	0x3da7375f	0.08164858
168	0x3e0a1326	0.13483867
169	0xba999349	-0.0011716868
170	0xb9f9c2a1	-0.0004763799
171	0x3cdfc1e2	0.02731413
172	0x3e601884	0.21884352
173	0x3e4362d1	0.19080664
174	0xbe5951d6	-0.21222624
175	0xbea0a908	-0.3137896
176	0xbdb3bf9b	-0.0877678
177	0x3d854e6f	0.06509101
178	0xbe3a6fbe	-0.18206689
179	0xbe266cdc	-0.16252464
180	0xbe948a3d	-0.29011717
181	0x3d778776	0.06043192
182	0x3d488cb0	0.048962295
183	0xbd805677	-0.06266492
184	0xbd356555	-0.04428609
185	0xbe26a600	-0.16274261
186	0x3cd6aba6	0.026204895
187	0xbdd915ad	-0.105998375
188	0x3d686cf8	0.056744546
189	0x3d2b6473	0.041843843
190	0xba221b8d	-0.0006183915
191	0xbdb8983f	-0.09013414
192	0x3b0314e6	0.002000147
193	0xbccac4e5	-0.02475209
194	0xbda5b4d7	-0.08091133
195	0xbe7693bb	-0.24079792
196	0xbe09a5c3	-0.1344214
197	0xbe81b586	-0.25333804
198	0xbdf80bc5	-0.1211162
199	0x3e2d5e52	0.16930512
200	0x3ed8591b	0.42255482
201	0x3ba58daf	0.0050522904
202	0x3d9c6368	0.07636148
203	0xbe2a3f6d	-0.16625758
204	0xbe226f5d	-0.15862794
205	0x3e11ad38	0.14226234
206	0xbd164226	-0.036684178
207	0x3e16852a	0.14699236
208	0x3ce0fb12	0.02746347
209	0x3df4c4c5	0.11951593
210	0x3e3f1451	0.18660094
211	0x3da702fc	0.08154866
212	0x3d9b78ee	0.07591425
213	0x3d5c2fe8	0.053756624
214	0x3dfd1610	0.12357724
215	0xbdbcaf6c	-0.092131466
216	0xbdb3aedf	-0.087735884
217	0x3da173d9	0.07883424
218	0x3c147d37	0.009063057
219	0x3ceddfd9	0.029037403
220	0x3e0df826	0.13864192
221	0x3e8cb3c6	0.27480906
222	0x3c5cc30c	0.013474237
223	0x3e808a32	0.25105435
224	0x3da36f7d	0.07980249
225	0x3d344a84	0.044016376
226	0x3e14b203	0.14521031
227	0x3e2280c0	0.15869427
228	0x3e93a081	0.28833392
229	0xbdcfb960	-0.10142779
230	0x3dc6cccf	0.09707033
231	0x3def06ce	0.1167122
232	0x3dea333e	0.11435555
233	0x3da92b26	0.08260183
234	0xbeab01c1	-0.33399776
235	0x3e2a20f7	0.16614138
236	0xbc65af1d	-0.014018801
237	0xbcea1c31	-0.028577896
238	0xbe0348d2	-0.12820747
239	0xbe5b7c9f	-0.21434258
240	0xbc79831a	-0.015229011
241	0xbccaab0b	-0.024739763
242	0xbe0de70e	-0.13857672
243	0xbe33264b	-0.17495076
244	0xbd06072e	-0.03272169
245	0xbd04660c	-0.032323882
246	0xbe47a8fb	-0.19498055
247	0xbe167da4	-0.14696366
248	0x3d9638a5	0.07335023
249	0x3e6a413c	0.22876447
250	0x3c84f86f	0.016231744
251	0x3e232db5	0.15935405
252	0x3dd0ffd4	0.10205045
253	0xbb0c3242	-0.002139226
254	0xbe42d632	-0.19027022
255	0x3ce902fb	0.028443804

conv2.bias f4 [20]
0	0x3de4dff1	0.11175526
1	0xbc585e09	-0.0132060135
2	0xbb68059a	-0.003540373
3	0x3d7264af	0.05917805
4	0xbe24a31b	-0.16077845
5	0xbd5e9248	-0.054338723
6	0x3d98b667	0.074566655
7	0xbd2e8b82	-0.042613514
8	0xbd627031	-0.055282775
9	0xbd63bc84	-0.055599704
10	0xbe0830ce	-0.13299868
11	0xbd26ef1c	-0.040755376
12	0xbcca414f	-0.024689345
13	0x3c879351	0.016549738
14	0xbe1ed3f9	-0.15510549
15	0xbe0bf99b	-0.13669436
16	0xbd59b23d	-0.053148497
17	0xbd6a3a4c	-0.057184502
18	0x3b34c84a	0.0027585202
19	0xbbd421c9	-0.006473754

fc1.weight f4 [50, 320]
0	0xbcb9bf3e	-0.0226742
1	0xbc5cc5dd	-0.013474909
2	0x3ddf184e	0.108933076
3	0x3d9e6765	0.07734565
4	0xbdb2341e	-0.08701347
5	0x3d93ad55	0.07210795
6	0xbda0094b	-0.078142725
7	0xbd59bfeb	-0.053161543
8	0xbe1e5e1f	-0.15465592
9	0xbcec29cf	-0.02882853
10	0xbd80908e	-0.062775716
11	0xbd18d9b0	-0.037316978
12	0xbdc8263a	-0.09772916
13	0x3df1f455	0.11814181
14	0x3e373a49	0.17893328
15	0x3e0d090b	0.13772981
16	0xbdb087b7	-0.086196356
17	0x3d3e588f	0.046471175
18	0x3d7c907b	0.061661225
19	0x3d6a49cc	0.057199284
20	0xbd36a363	-0.04458941
21	0xbabf79d1	-0.0014608448
22	0x3d7e074b	0.062018674
23	0x3e2c3837	0.1681832
24	0xbbdeec0e	-0.0068030423
25	0xbce7627f	-0.028245209
26	0x3df2013a	0.1181664
27	0xbd4cfb62	-0.050044425
28	0xbe77e96c	-0.24210137
29	0xbe245f75	-0.16052039
30	0x3d4780a9	0.048706684
31	0x3e2be903	0.16788106
32	0xbd2d1ee4	-0.042265788
33	0xbc237de5	-0.009978746
34	0x3d83cad3	0.0643517
35	0x3d61547f	0.055012222
36	0x3d441411	0.0478707
37	0xbd83da53	-0.064381264
38	0xbd21dc39	-0.03951666
39	0x3c3b485b	0.011430825
40	0xbab0b338	-0.0013481146
41	0xbde62bf7	-0.112388544
42	0x3daab26e	0.08334814
43	0xbd94dd2e	-0.07268749
44	0x3b2e3cfb	0.002658664
45	0x3e244168	0.16040576
46	0x3dea2bb0	0.11434114
47	0x3d40bc83	0.04705478
48	0xbc787cf6	-0.015166512
49	0x3d109de4	0.035306826
50	0x3cd47528	0.02593477
51	0xbd2b943c	-0.041889414
52	0xbdbb31f8	-0.0914039
53	0xbd610f0d	-0.054945994
54	0x3cd0b00c	0.02547457
55	0xbd974ef7	-0.07388108
56	0xbe4e5317	-0.20148884
57	0xbd5075df	-0.05089366
58	0xbcd32e00	-0.02577877
59	0x3d35c43f	0.044376608
60	0x3e8f71b5	0.2801644
61	0x3e3fbfdb	0.18725531
62	0x3d8a0c0e	0.067405805
63	0xbbbbfb7f	-0.005736768
64	0xbb0b6ec5	-0.002127574
65	0xbd4bcc15	-0.049755175
66	0x3d51a945	0.05118682
67	0xbdb96cdc	-0.090539664
68	0x3d214a0f	0.03937727
69	0x3c300cc2	0.010745229
70	0x3d777f09	0.060423885
71	0x3c14936d	0.009068352
72	0x3d4890b7	0.048966136
73	0xbc8b4ad3	-0.017003452
74	0x3d8b1f39	0.067930646
75	0xbbcc3892	-0.0062323296
76	0x3d02a0eb	0.031891745
77	0x3c7fe333	0.015618133
78	0x3d77e775	0.06052347
79	0xbdc2e537	-0.095163755
80	0x3d285a4d	0.041101743
81	0x3d0c665d	0.03427731
82	0x3c95392f	0.018215744
83	0x3dd3875a	0.10328551
84	0x3d6d1299	0.057879064
85	0xbced38ea	-0.028957803
86	0x3b691282	0.003556401
87	0xbc47ee23	-0.012202772
88	0x3e2ea0fd	0.170536
89	0x3c814600	0.015780449
90	0x3c10d01e	0.0088386815
91	0xbd491499	-0.04909191
92	0x3dfd5119	0.12368984
93	0xbdca6bce	-0.09883843
94	0xbd6366e6	-0.055518053
95	0xbcc66e99	-0.024222659
96	0xbafe8957	-0.0019419593
97	0xbce36d2b	-0.027762016
98	0x3d0bf87b	0.034172516
99	0x3d234955	0.039864857
100	0xbd71312c	-0.058884785
101	0xbbda1b22	-0.0066560665
102	0x3d110632	0.0354063
103	0xbb0e5d31	-0.0021723027
104	0xbd053330	-0.03251952
105	0xbd890c80	-0.06691837
106	0xbd860c75	-0.06545345
107	0x3d4e235e	0.050326698
108	0x3e0a220b	0.13489549
109	0x3dc1bf0e	0.09460269
110	0x3e098d2e	0.13432762
111	0xbc9b138d	-0.018930221
112	0x3d22a5e9	0.039709006
113	0x3d2ac3e4	0.041690722
114	0xbc3ec7e4	-0.011644337
115	0x3e2a79df	0.16648053
116	0xbd27914b	-0.040910047
117	0x3dc74247	0.09729438
118	0xbc412059	-0.011787497
119	0x3c6ef7e1	0.014585466
120	0xbd39e866	-0.045387648
121	0x3cc27a44	0.023739941
122	0x3cee9a5a	0.029126335
123	0xbb8f347b	-0.00437027
124	0xbda663c6	-0.08124499
125	0xbce8ab8e	-0.028402116
126	0xbc148626	-0.009065187
127	0xbd4b69bc	-0.049661383
128	0xbd25c54a	-0.040471353
129	0x3d080ab4	0.033213332
130	0x3c00727b	0.007839794
131	0xbbd6284f	-0.006535567
132	0x3db80046	0.08984427
133	0x3b6c77b4	0.003608209
134	0xbdcfb6ae	-0.10142265
135	0x3c8202aa	0.015870411
136	0x3d3d0b87	0.04615357
137	0x3d7a8522	0.06116212
138	0x3d763bba	0.060115553
139	0xb86473cf	-5.446729e-05
140	0xbe035a64	-0.1282745
141	0xbd4e6c24	-0.0503961
142	0x3b836f87	0.004011098
143	0x3df056d9	0.11735315
144	0x3e020a23	0.1269918
145	0xbce1a24a	-0.027543206
146	0xbd0598cf	-0.032616433
147	0xbd5c107f	-0.05372667
148	0x3c036bdc	0.008021321
149	0xbd586e3f	-0.052839514
150	0xbcb92adc	-0.022603445
151	0xbd04dce0	-0.032437205
152	0xbaaa51dd	-0.0012994368
153	0x3ca45c19	0.020063447
154	0xbd9d95e2	-0.076946035
155	0x3c14fedc	0.009093966
156	0x3ded8d96	0.11599271
157	0x3d439c21	0.047756318
158	0xbe08fdb2	-0.13378027
159	0xbd383710	-0.044974387
160	0xbc52c57f	-0.01286447
161	0xbd14e6c5	-0.03635289
162	0x3d4e91b1	0.05043191
163	0xbcab660f	-0.020922689
164	0xbc81cab1	-0.015843721
165	0xbdcaadfd	-0.09896467
166	0x3c56e71b	0.013116623
167	0xbd929fad	-0.07159362
168	0x3d754bb7	0.05988666
169	0x3d87a2ee	0.06622873
170	0xbcf58214	-0.029969253
171	0xbd33c666	-0.04389038
172	0x3dc858d5	0.09782568
173	0xbd8a8425	-0.06763486
174	0xbd600cce	-0.05469971
175	0xbdce5323	-0.10074451
176	0x3d3c4711	0.04596621
177	0x3cad3fbf	0.02114856
178	0xbd1da226	-0.038484715
179	0x3d18c73a	0.037299372
180	0x3d798a24	0.060922757
181	0xbd3fe3b3	-0.04684801
182	0x3d1aaaa0	0.037760377
183	0x3dfcf061	0.12350536
184	0x3dd9914f	0.106234185
185	0x3d2c9f4a	0.042144097
186	0x3d913a99	0.07091255
187	0xbde9de97	-0.11419409
188	0xbd64ef44	-0.055892244
189	0xbcee00af	-0.02905306
190	0xbdebf934	-0.11522141
191	0xbded9d02	-0.116022125
192	0x3daf4dd4	0.085597664
193	0xbd83076d	-0.06397901
194	0x3c8f05c2	0.0174588
195	0xbd3a25d3	-0.04544623
196	0xbcd70e00	-0.026251793
197	0xbd60d121	-0.05488694
198	0x3dd2155b	0.102579795
199	0xbd1d4edc	-0.038405284
200	0xbce6d7e8	-0.028179124
201	0x3d70eeaa	0.058821358
202	0x3d567e72	0.05236668
203	0x3d174deb	0.036939543
204	0xbdbaa2d4	-0.09113088
205	0x3c122f50	0.008922413
206	0xbc1f94e6	-0.00974009
207	0xbdac54ab	-0.08414587
208	0x3e1a4dc8	0.15068734
209	0x3d62370c	0.055228278
210	0xbc12ff8d	-0.008972061
211	0xbdcfabf8	-0.10140222
212	0x3d4b4dc4	0.04963471
213	0xbe062fa3	-0.1310411
214	0xbdfc0623	-0.12305858
215	0x3c4e88e3	0.0126058785
216	0x3d35cfee	0.04438775
217	0x3d1140eb	0.0354623
218	0xbca90b4d	-0.020635271
219	0xbd09e3c0	-0.033664465
220	0x3e856f34	0.26061404
221	0x3e09f479	0.13472165
222	0xbd70795c	-0.058709487
223	0xbcc3b8d9	-0.023891853
224	0xbbb17a92	-0.005416223
225	0x3d0d0377	0.034427132
226	0x3c206699	0.009790086
227	0x3dca7ba2	0.09886862
228	0xbd01f93c	-0.03173183
229	0x3d1423d5	0.036166985
230	0xbd5c6200	-0.053804398
231	0xbd0ea415	-0.03482445
232	0x3cbead99	0.023276137
233	0xbb795cfb	-0.0038049805
234	0x3d94d906	0.072679564
235	0x3b5de67d	0.0033859306
236	0x3e269f5c	0.16271728
237	0xbd182237	-0.037142005
238	0xbdcf558d	-0.101237394
239	0xbd2b42d0	-0.041811764
240	0x3d687a2a	0.05675713
241	0xbbc6067f	-0.006043255
242	0xbc8d65ea	-0.01726051
243	0x3da6e4ba	0.08149095
244	0xbd05fe62	-0.0327133
245	0xbda001d7	-0.07812851
246	0xbc63f1a3	-0.013912591
247	0xbc0b81d8	-0.008514844
248	0xbd16ca91	-0.036814276
249	0xbdd0d140	-0.10196161
250	0x3cb637df	0.022243438
251	0xbd92a057	-0.07159489
252	0x3e0229df	0.12711285
253	0x3e3da3a2	0.18519452
254	0x3c6273cb	0.0138215525
255	0xbd97c495	-0.07410542

fc1.bias f4 [50]
0	0x3e17a30a	0.14808288
1	0x3e5f101b	0.21783487
2	0x3a9cd341	0.0011964814
3	0x3d9d15c8	0.0767017
4	0x3b6299db	0.0034576568
5	0xbcc898f1	-0.02448699
6	0x3dfbfcfe	0.12304114
7	0x3ce11721	0.027476849
8	0xbd90d93f	-0.070726864
9	0x3de9b711	0.1141187
10	0x3ea9966f	0.33122584
11	0xbbf293fc	-0.007402895
12	0x3ead8618	0.33891368
13	0x3e194025	0.14965875
14	0x3e2076de	0.15670344
15	0xbd8038a6	-0.06260805
16	0x3d691638	0.056905955
17	0x3e6b4d7b	0.22978775
18	0x3e69bb80	0.22825432
19	0x3e6c0d12	0.23051861
20	0x3e45b2d3	0.19306497
21	0x3dc97bcb	0.09838065
22	0xbd9aca5b	-0.075581275
23	0x3e5c8980	0.21536827
24	0x3d5525b7	0.05203792
25	0x3e64eb79	0.2235545
26	0x3e919e82	0.28441244
27	0x3dc902f1	0.09815014
28	0x3e070798	0.1318649
29	0xbcd8cf6b	-0.026466092
30	0x3d3bf570	0.045888364
31	0x3c4948ae	0.012285395
32	0xbc46b332	-0.012127684
33	0x3dadb793	0.0848228
34	0x3decceff	0.11562919
35	0x3e517b03	0.20457081
36	0xbd390c1f	-0.045177575
37	0x3e807db4	0.25095904
38	0x3e04bd23	0.12962775
39	0xbd27e569	-0.040990267
40	0x3eb34c82	0.35019308
41	0x3ddf51ab	0.10904249
42	0xbb9e4bbd	-0.004830806
43	0x3e006415	0.12538178
44	0x3df74fe5	0.120757855
45	0x3e39b3f4	0.18135053
46	0x3ea5eab0	0.32405615
47	0x3dc4be66	0.09606628
48	0xbb78b3d5	-0.0037948985
49	0x3d875c1f	0.066093676

fc2.weight f4 [10, 50]
0	0xbef4d0bf	-0.4781551
1	0xbe75d7aa	-0.2400805
2	0xbea734f4	-0.32657588
3	0xbe6c59c4	-0.23081118
4	0xbe830e21	-0.25596717
5	0x3ddfe1de	0.109317526
6	0x3e4274eb	0.18989913
7	0xbe939907	-0.28827688
8	0x3e69c7d6	0.22830138
9	0x3e6cab22	0.23112157
10	0xbcbdcdda	-0.023169447
11	0xbe2895c5	-0.16463383
12	0x3e896b49	0.26839665
13	0x3ebfbe21	0.37449744
14	0x3e59b90c	0.21261996
15	0xbe454ad2	-0.19266823
16	0x3e796604	0.24355322
17	0xbea81477	-0.32828113
18	0xbe0ec2e8	-0.13941538
19	0xbe8d3607	-0.27580282
20	0xbe83eb4d	-0.25765458
21	0xbeb8ca2f	-0.36091754
22	0xbe87f60f	-0.26554915
23	0xbed4fa76	-0.41597337
24	0x3e3e8a3f	0.18607424
25	0xbe04086d	-0.12893839
26	0xbe2b4f49	-0.16729464
27	0xbe26207a	-0.16223326
28	0x3e88b9b8	0.26704192
29	0xbe6b269c	-0.22963947
30	0xbe7074ca	-0.23482051
31	0x3e81a9c0	0.2532482
32	0x3e3a37c8	0.18185341
33	0x3d765621	0.060140733
34	0x3d06646e	0.03281062
35	0xbe5d4c4e	-0.21611139
36	0xbe7773b3	-0.2416523
37	0xbe819153	-0.25306186
38	0x3d2016c4	0.03908421
39	0xbe935fc2	-0.28783995
40	0x3e97b00e	0.29626507
41	0x3ea98718	0.3311088
42	0xbe6b7a89	-0.22995962
43	0xbe9b0ab7	-0.30281612
44	0xbe553fad	-0.20825072
45	0xbdc7d151	-0.09756721
46	0x3e8707b0	0.26373053
47	0x3e8f0338	0.27932143
48	0xbe8456b3	-0.25847396
49	0x3e657686	0.22408494
50	0x3e5442a3	0.20728545
51	0x3e2ea95a	0.1705679
52	0xbe36f9d4	-0.1786874
53	0x3e4c8da3	0.19975905
54	0xbe484075	-0.19555838
55	0xbe6de1ba	-0.23230639
56	0xbdda8927	-0.10670691
57	0x3e5844a5	0.21119936
58	0xbea306a7	-0.31841013
59	0xbdcf0548	-0.10108429
60	0x3ebdf6d1	0.37102368
61	0xbebf4e82	-0.37364584
62	0x3e7239ee	0.23654911
63	0xbe7815cd	-0.24227066
64	0xbe9747b7	-0.29546902
65	0xbde2d3d7	-0.110755615
66	0xbea3b065	-0.31970516
67	0x3e4ff66c	0.20308846
68	0x3e7ac17c	0.24487871
69	0x3e696c2a	0.22795168
70	0x3e672259	0.22571696
71	0xbe14e9c6	-0.14542302
72	0xbec8116e	-0.39075798
73	0x3e8a29bb	0.26984963
74	0xbe223690	-0.15841126
75	0x3edde3b3	0.43337783
76	0x3ec2375f	0.3793287
77	0x3e0656c9	0.13119043
78	0xbe800fc6	-0.25012034
79	0xbe5ba633	-0.21450119
80	0x3d417b2e	0.047236614
81	0xbe7e7d21	-0.2485242
82	0xbe723527	-0.23653089
83	0xbea14c23	-0.315034
84	0xbe8ed135	-0.27893987
85	0x3e758c69	0.23979343
86	0xbe01db4a	-0.12681308
87	0x3e934e26	0.2877056
88	0x3dc89a47	0.09795051
89	0xbe331076	-0.17486748
90	0x3e7c450e	0.24635717
91	0xbe600bb1	-0.2187946
92	0xbe71c373	-0.23609714
93	0x3d092ae8	0.033488184
94	0xbe35c5e8	-0.17751276
95	0x3e9439db	0.2895039
96	0x3e624b43	0.22099023
97	0xbe740905	-0.23831566
98	0xbe277b9d	-0.16355748
99	0xbeb2978c	-0.34881246
100	0xbe44b2e9	-0.19208874
101	0xbc793ac0	-0.015211761
102	0x3e5ae44c	0.21376151
103	0x3e50326c	0.20331734
104	0x3e364fac	0.1780383
105	0x3e00159d	0.12508245
106	0x3e66855c	0.2251181
107	0x3e7f9741	0.24960043
108	0x3e4cc2ef	0.19996236
109	0x3e801c65	0.25021663
110	0x3e1761b6	0.14783368
111	0x3e878b4e	0.2647347
112	0x3e62a8d6	0.22134718
113	0xbe6de947	-0.2323352
114	0xbd7a669c	-0.061133012
115	0xbe803c35	-0.25045934
116	0xbe4ddb18	-0.20103109
117	0x3e4daafe	0.2008476
118	0xbe250920	-0.16116762
119	0xbeb72b0d	-0.35775033
120	0xbdd4eb78	-0.103964746
121	0xbe4f64a7	-0.2025324
122	0xbe470de7	-0.19438897
123	0x3e7ebf07	0.24877559
124	0xbcad3a17	-0.021145863
125	0x3e2ca4ce	0.16859743
126	0xbe0be1e0	-0.13660383
127	0xbe6c130a	-0.23054138
128	0xbd980009	-0.07421882
129	0xbcda3c79	-0.026640164
130	0x3e4996d3	0.19686441
131	0x3d10469f	0.0352236
132	0xbb3459eb	-0.0027519416
133	0xbe57b260	-0.21064138
134	0x3e7039c0	0.2345953
135	0xbe806bd6	-0.25082272
136	0x3e7bf990	0.2460692
137	0x3e9bca17	0.3042762
138	0xbe7f8589	-0.24953283
139	0xbd709b89	-0.05874208
140	0xbeb5f5b8	-0.3553903
141	0x3e8801b6	0.26563805
142	0x3e93a8a7	0.2883961
143	0xbccc0e04	-0.024909027
144	0x3c00e3fa	0.007866854
145	0x3e85c5de	0.26127523
146	0x3e51b5f3	0.20479564
147	0x3e6a25f1	0.22866036
148	0x3e60785c	0.21920913
149	0xbd30f5bf	-0.04320311
150	0x3e729210	0.23688531
151	0xbe53d124	-0.2068525
152	0x3e5909b0	0.21195102
153	0x3e4e7569	0.20161976
154	0xbb2e1b23	-0.0026566468
155	0x3dc6e871	0.097123034
156	0xbe8b031d	-0.27150813
157	0x3e88b079	0.26697138
158	0xbe20ff2e	-0.15722343
159	0xbe51ca5d	-0.20487352
160	0xbe48b6ad	-0.19600935
161	0xbe373cab	-0.17894237
162	0xbe3ad8f0	-0.18246818
163	0xbdf011df	-0.11722159
164	0xbdf51ad4	-0.11968008
165	0x3e8878d5	0.26654688
166	0xbdc9bab5	-0.09850065
167	0x3e5966ed	0.2123067
168	0x3e61c2cc	0.22046965
169	0xbe038e43	-0.12847237
170	0xbe64d87d	-0.22348209
171	0xbe546473	-0.20741443
172	0x3e5ebb35	0.21751101
173	0xbdbd12cc	-0.09232101
174	0x3e8d0af2	0.27547413
175	0xbe4cf8af	-0.2001674
176	0xbeb5708f	-0.35437438
177	0x3e6c8593	0.2309783
178	0xbe363a93	-0.17795782
179	0x3e7c5a23	0.2464376
180	0x3e50ac55	0.2037824
181	0x3e6ba67a	0.23012725
182	0x3e63273d	0.22182937
183	0xbe709902	-0.23495868
184	0xbe2437d4	-0.16036922
185	0xbead1634	-0.33806002
186	0x3e5d16c6	0.21590719
187	0x3e9ca104	0.30591595
188	0xbe286dab	-0.16448085
189	0x3e83ec8f	0.25766417
190	0xbe32de7f	-0.17467688
191	0xbdb4702c	-0.088104576
192	0xbc82c8ff	-0.015964983
193	0xbc58043b	-0.013184602
194	0xbcb696d0	-0.02228871
195	0x3e8a1104	0.26966107
196	0xbdfef8b0	-0.12449777
197	0xbe2100d9	-0.1572298
198	0x3e748442	0.23878577
199	0x3e58681b	0.21133463
200	0x3e6e7975	0.2328852
201	0x3e3344bc	0.17506689
202	0x3e5d84cc	0.21632689
203	0xbea21e71	-0.3166385
204	0x3e335c38	0.17515647
205	0xbea5a3b1	-0.3235145
206	0x3e87085f	0.26373574
207	0xbd615929	-0.05501667
208	0x3e36be0f	0.17845939
209	0xbc6962c1	-0.014244736
210	0x3ec35d34	0.38157046
211	0x3eacf103	0.33777627
212	0xbe3602ff	-0.1777458
213	0xbdb0e991	-0.08638299
214	0xbe67081f	-0.22561692
215	0xbe3a18fa	-0.1817359
216	0xbe5702f2	-0.20997217
217	0xbe76dc9d	-0.24107595
218	0x3e8b5825	0.27215686
219	0x3dcdd63a	0.10050626
220	0x3e7aea5f	0.24503468
221	0x3eb696e5	0.35661998
222	0x3d0bfdb7	0.03417751
223	0x3e84d7ef	0.25945994
224	0xbe7a6877	-0.24453913
225	0xbd3572e4	-0.04429902
226	0xbddce61c	-0.107860774
227	0x3e3a9d7b	0.18224137
228	0xbe09db35	-0.13462527
229	0xbe0c7784	-0.13717467
230	0xbde52cb1	-0.11190165
231	0xbe9fc1da	-0.31202585
232	0xbe2120cf	-0.15735172
233	0x3ea9fb27	0.33199427
234	0x3ea35b4a	0.31905586
235	0x3e86166f	0.2618899
236	0xbd0d60ab	-0.034516018
237	0xbdd5b8e0	-0.10435653
238	0xbe502aa9	-0.20328774
239	0x3e8d7f46	0.27636164
240	0xbe8e5e46	-0.278063
241	0x3b759b6d	0.0037476674
242	0x3c5335b8	0.0128912255
243	0x3c10701d	0.008815792
244	0x3ea7bfb5	0.32763448
245	0xbdcdbad3	-0.100453995
246	0x3dffbf35	0.12487642
247	0x3e7fd3c7	0.2498313
248	0xbec7e4b7	-0.39041683
249	0xbed71714	-0.42009795
250	0x3e6986c2	0.22805312
251	0x3e34903e	0.17633149
252	0xbe1c0fdf	-0.1524043
253	0xbeb399e4	-0.35078347
254	0x3e2c84a2	0.1684747
255	0xbebdbbc8	-0.37057328

fc2.bias f4 [10]
0	0x3f4bc013	0.79589957
1	0x3f630310	0.8867655
2	0xbe9d5a5c	-0.30733
3	0xbf14966b	-0.5804202
4	0xbe06d1fa	-0.13166037
5	0xbefbe870	-0.49200773
6	0xbe2d1e1d	-0.16906019
7	0x3dfecdef	0.124416225
8	0x3eeac2c4	0.4585172
9	0xbf034caa	-0.51288855
