homework/7.9hw/CIFAR-10/model_bn.pth (torch, 91966 bytes, 12 tensors)

conv1.weight f4 [10, 1, 5, 5]
0	0x3e042910	0.12906289
1	0x3e97ac09	0.2962344
2	0xbc363e83	-0.011123302
3	0xbe96b80d	-0.29437295
4	0xbebafb05	-0.36519638
5	0xbe810a8c	-0.2520336
6	0x3d8b0321	0.06787706
7	0x3f049fa1	0.51806074
8	0x3e25e3af	0.16200136
9	0xbe67dfdc	-0.2264399
10	0xbec4fb83	-0.38473138
11	0xbe9ea4eb	-0.30985197
12	0x3ecac8a9	0.39606217
13	0x3d3b73d6	0.045764767
14	0xbb9d6814	-0.004803667
15	0xbde8febc	-0.11376712
16	0xbe7d8ace	-0.24759981
17	0xbc57b842	-0.013166489
18	0x3e8d7cac	0.2763418
19	0x3c4f083c	0.012636241
20	0x3dc1da28	0.09465438
21	0x3b9378d9	0.00450049
22	0xbdcadd9f	-0.09905552
23	0xbd4aa380	-0.049472332
24	0x3d497019	0.04917917
25	0xbe14b522	-0.14522222
26	0x3b020603	0.001984001
27	0x3e195c06	0.1497651
28	0xbf08f099	-0.5349212
29	0xbea48eef	-0.321403
30	0x3e288af1	0.16459252
31	0xbe37c003	-0.1794434
32	0xbe888f3a	-0.26671773
33	0xbe3636f0	-0.17794394
34	0x3ef02ac1	0.4690762
35	0x3e38171f	0.1797757
36	0x3eac820b	0.33692965
37	0x3e4db440	0.20088291
38	0x3f17fb29	0.59367615
39	0x3e46fa35	0.19431384
40	0xbda5e45e	-0.08100198
41	0x3b23e42a	0.0025007823
42	0x3d822217	0.06354158
43	0xbe8c845c	-0.27444732
44	0x3d4e359a	0.050344087
45	0xbe2f52d9	-0.17121448
46	0xbe1fd079	-0.1560687
47	0xbd95df75	-0.07318012
48	0xbe90c7be	-0.2827739
49	0xbda313c7	-0.079627566
50	0x3d9f9218	0.07791537
51	0x3dbf36d1	0.09336627
52	0x3d97a343	0.074041866
53	0xbd445629	-0.04793373
54	0xbd0d1743	-0.034446012
55	0x3e0ba665	0.13637693
56	0x3dfd85c6	0.12379031
57	0x3de7dd73	0.11321535
58	0xbe4e8da4	-0.20171219
59	0xbe3d4ab6	-0.18485531
60	0x3e441757	0.19149528
61	0x3e07636d	0.13221522
62	0xbf1b9259	-0.60770184
63	0xbee05c62	-0.43820482
64	0xbe791019	-0.24322547
65	0xbd1d16ac	-0.0383517
66	0xbf386baa	-0.7203928
67	0xbebae2f8	-0.36501288
68	0x3e9bbc2e	0.30417007
69	0x3d1ec6f5	0.03876396
70	0xbf32a070	-0.6977606
71	0xbcfe1c27	-0.031019283
72	0x3e63d5ea	0.2224957
73	0x3e306d17	0.17229114
74	0x3e06eec9	0.13177027
75	0xbf1832ef	-0.5945272
76	0xbe862561	-0.26200393
77	0xbd21c1e0	-0.039491534
78	0x3e0a45fa	0.13503256
79	0xbd8bcf8d	-0.068266965
80	0xbe0fa1f1	-0.1402662
81	0xbed0ee90	-0.4080701
82	0xbe3a6654	-0.18203098
83	0x3e073ea6	0.13207492
84	0x3e2c435b	0.16822569
85	0x3e097dc1	0.13426878
86	0xbee2f8d1	-0.44330457
87	0xbeb27d08	-0.34861016
88	0xbc5dee7e	-0.0135456305
89	0x3e5effcd	0.21777268
90	0x3e6dcf9e	0.23223731
91	0xbe4f9221	-0.20270588
92	0xbf11d965	-0.5697234
93	0xbe8b2521	-0.27176765
94	0xbe838e87	-0.25694677
95	0x3e378546	0.17921934
96	0x3e6e8e91	0.23296572
97	0xbe3b3b22	-0.18284276
98	0xbea440f4	-0.32080805
99	0xbf060075	-0.5234445
100	0xbe532b66	-0.20622024
101	0xbedfe272	-0.43727452
102	0xbe6424ce	-0.22279665
103	0x3e0eaa92	0.13932255
104	0xbeb5c971	-0.3550525
105	0x3e004991	0.12528063
106	0x3d8dc643	0.06922581
107	0xbddf1d3c	-0.10894248
108	0xbe678ec4	-0.22613055
109	0xbead6aeb	-0.33870634
110	0x3b668e5a	0.0035180063
111	0xbd34ee4d	-0.044172574
112	0xbe11c874	-0.14236623
113	0x3c97f0ff	0.018547533
114	0xbcf1576d	-0.029460633
115	0x3ee702a3	0.451192
116	0xbe9507d3	-0.29107532
117	0xbea1e485	-0.3161966
118	0xbe91dc25	-0.2848827
119	0x3e078da4	0.13237625
120	0x3ece29c3	0.40266237
121	0xbeddfc4e	-0.43356556
122	0xbea1c367	-0.31594393
123	0x3d74b9a6	0.05974736
124	0x3eded6cb	0.4352325
125	0xbe7a7a4b	-0.24460714
126	0xbe30d23f	-0.17267703
127	0xbd545a70	-0.05184406
128	0x3d3e3355	0.046435673
129	0x3e6d56c6	0.23177633
130	0xbeec62b5	-0.46169057
131	0x3db3afd3	0.0877377
132	0x3e123361	0.14277412
133	0x3d51a338	0.05118105
134	0x3d3d3292	0.046190806
135	0x3dee37e3	0.11631753
136	0x3e24f493	0.16108923
137	0x3d3bb666	0.045828246
138	0xbe8d24b7	-0.27567074
139	0x3e3b973b	0.18319409
140	0x3e4aebca	0.19816509
141	0x3d2f04c9	0.042729173
142	0xbe388f91	-0.18023516
143	0xbdd62236	-0.10455744
144	0x3dbb6009	0.091491766
145	0x3e68d06b	0.22735755
146	0xbc0904d0	-0.008362964
147	0x3dfdc9e3	0.123920225
148	0x3c9d6c0e	0.019216564
149	0x3c821999	0.015881347
150	0xbf02f5d5	-0.5115636
151	0xbd4e8949	-0.050423894
152	0x3daf12d7	0.08548515
153	0x3e273cd1	0.16331793
154	0x3e3fb326	0.18720683
155	0xbefda3cb	-0.49539027
156	0xbecc0395	-0.39846483
157	0xbf2edc96	-0.6830534
158	0xbf104e76	-0.5636972
159	0x3cc0c3cf	0.023530869
160	0x3e258cf8	0.16167057
161	0x3df56e6b	0.11983951
162	0xbd8671dd	-0.065646864
163	0xbeab8647	-0.33500883
164	0xbef1ea3c	-0.4724902
165	0x3dd2b29c	0.10287973
166	0x3da5d335	0.08096925
167	0x3e12d461	0.14338829
168	0x3e143c7f	0.14476202
169	0xbe2e913d	-0.17047592
170	0x3d26757f	0.040639397
171	0x3d5f1314	0.054461554
172	0x3e537f26	0.20653972
173	0x3e6b5bcb	0.22984235
174	0x3e687424	0.22700554
175	0x3c5e155e	0.013554899
176	0x3bc33eab	0.0059583983
177	0xbc2e199f	-0.010626226
178	0xbd987b3d	-0.07445381
179	0x3e326f2b	0.1742522
180	0x3e32b7a1	0.17452861
181	0xbe930e4c	-0.28721845
182	0xbec46cc0	-0.3836422
183	0xbe49a2c7	-0.19691001
184	0x3e3c0a64	0.18363339
185	0x3ed54d82	0.41660696
186	0x3ce47e24	0.02789218
187	0xbe5b8724	-0.21438271
188	0xbedf2dbc	-0.4358958
189	0x3de3548b	0.1110011
190	0x3e702980	0.23453331
191	0xbcab34de	-0.020899232
192	0x3df700e7	0.12060719
193	0xbe807481	-0.25088885
194	0xbcb712dd	-0.022347862
195	0x3d230e27	0.03980842
196	0x3cc56f6f	0.024100987
197	0x3e0615d4	0.13094264
198	0x3b288112	0.0025711698
199	0xbd91d7b0	-0.07121217
200	0x3c8fd333	0.017556762
201	0x3da4ebfb	0.08052822
202	0x3d8b70ac	0.068086
203	0xbdcc85d0	-0.0998646
204	0x3e7f7d5c	0.24950165
205	0xbd9286aa	-0.071545914
206	0x3d865a5d	0.06560204
207	0x3e7cebca	0.24699321
208	0x3d427df6	0.047483407
209	0x3e51b409	0.20478834
210	0xbe810e63	-0.2520629
211	0x3e62b79b	0.22140352
212	0x3cd332c4	0.025781043
213	0x3dc91fef	0.09820544
214	0x3db2a302	0.087224975
215	0xbf2158c1	-0.6302605
216	0x3e12fdaa	0.14354578
217	0x3e96b442	0.294344
218	0x3db6864d	0.089123346
219	0xbeab04bd	-0.33402053
220	0xbefae704	-0.49004376
221	0xbf38351d	-0.71956044
222	0xbf487834	-0.78308415
223	0xbefe5e13	-0.49681148
224	0xbe9d6513	-0.30741176
225	0x3e411312	0.18854931
226	0xbe69935e	-0.22810122
227	0xbee63071	-0.44958833
228	0xbe578eed	-0.21050616
229	0x3d8e649f	0.06952786
230	0x3e7d89e8	0.24759638
231	0xbf312f16	-0.6921247
232	0xbdcff1bf	-0.10153531
233	0x3cf0bdc9	0.029387372
234	0x3e43bffc	0.19116205
235	0xbcd3c244	-0.025849469
236	0xbf341fcb	-0.7036101
237	0x3e334b7e	0.17509267
238	0x3bd604b4	0.0065313224
239	0x3e1ff6cd	0.15621491
240	0xbe015905	-0.12631615
241	0xbedade2d	-0.42747632
242	0x3e5d65d0	0.2162087
243	0xbdcf494b	-0.101214014
244	0x3ea7c580	0.32767868
245	0xbe2d2f97	-0.16912685
246	0xbed140ff	-0.408699
247	0xbe444e63	-0.19170527
248	0xbde37df5	-0.11108009
249	0x3e157a0f	0.14597343

conv1.bias f4 [10]
0	0xbf2f64e0	-0.685133
1	0xbf31e4d1	-0.6948977
2	0xbf410716	-0.7540144
3	0xbf07b087	-0.53003734
4	0xbf4732e5	-0.77812034
5	0xbd6eced3	-0.05830271
6	0xbf48c9ab	-0.7843272
7	0xbe397f8f	-0.18115066
8	0xbf738311	-0.95121866
9	0xbf1ae281	-0.6050187

conv2.weight f4 [20, 10, 5, 5]
0	0xbda8169b	-0.08207437
1	0x3d2d63b5	0.042331416
2	0xbc3b7960	-0.011442512
3	0xbe436d1f	-0.19084595
4	0xbe1d9d6a	-0.1539208
5	0xbcf00358	-0.02929847
6	0xbb9d8158	-0.0048066787
7	0x3e00393b	0.12521832
8	0x3d7e051c	0.06201659
9	0xbb308882	-0.0026936834
10	0xbcdc72b5	-0.026910165
11	0xbb581a47	-0.0032974647
12	0x3c91b3ab	0.017785868
13	0xbd3ec950	-0.046578705
14	0x3e30a5e1	0.17250778
15	0x3d99ff8b	0.07519444
16	0xbd9edebf	-0.07757329
17	0x3da812fc	0.08206746
18	0xbbbef876	-0.0058279587
19	0x3e0fb9d6	0.14035735
20	0xbc9cff7c	-0.019164793
21	0xbcc7d7e7	-0.024394942
22	0xbe056ea8	-0.13030493
23	0xbd122ce5	-0.035687346
24	0xbd021c7e	-0.031765454
25	0x3d14ad50	0.036298096
26	0x3c98548e	0.018595006
27	0x3d8330ae	0.06405769
28	0x3dc67688	0.09690577
29	0xbd1175f6	-0.035512887
30	0xbd5f0ddb	-0.054456573
31	0xbd9e93d4	-0.0774304
32	0x3db1859e	0.086680636
33	0x3e1e881b	0.15481608
34	0x3d40b2a6	0.047045372
35	0xbdc3203d	-0.09527633
36	0xbe4fef7a	-0.20306197
37	0x3da9b250	0.082859635
38	0x3c24f746	0.01006872
39	0x3d61f339	0.055163596
40	0xbd616c7e	-0.055035107
41	0xbe081ae8	-0.13291514
42	0x3d141b35	0.03615876
43	0xbdb5d8ed	-0.08879266
44	0x3df84b00	0.1212368
45	0x3d961d47	0.07329803
46	0xbdbef2d8	-0.093236625
47	0xbd921cd0	-0.07134402
48	0x3be4cc48	0.00698236
49	0x3e175f32	0.14782408
50	0x3d23a078	0.039947957
51	0xbe0308b6	-0.12796292
52	0xbdaff658	-0.08591908
53	0xbdd73dd9	-0.105098434
54	0x3e10ec62	0.14152673
55	0x3deee8b5	0.11665479
56	0x3d0114c7	0.031513955
57	0xbd66536c	-0.0562319
58	0xbdeace08	-0.114650786
59	0xbd82cdf8	-0.06386942
60	0x3d7d7ebb	0.061888438
61	0xbd846ab8	-0.064656675
62	0xbc556171	-0.01302372
63	0xbda5dee6	-0.08099155
64	0xbe986670	-0.29765654
65	0x3e1fe2ec	0.15613908
66	0x3dc4b838	0.096054494
67	0xbe31a5bb	-0.17348377
68	0xbe158c1a	-0.14604226
69	0xbd9d1408	-0.07669836
70	0x3e68239a	0.22669831
71	0x3e5ad2cc	0.21369475
72	0x3d5ad14e	0.053422265
73	0x3db38942	0.08766414
74	0x3dc7f8ad	0.09764228
75	0x3ce3c49a	0.027803708
76	0x3c2db04d	0.010601115
77	0xbd3216c9	-0.04347876
78	0x3d3ad7c0	0.04561591
79	0xbb78a3c7	-0.0037939416
80	0x3bf36236	0.007427479
81	0x3d5df820	0.05419171
82	0x3b0a0825	0.0021061983
83	0xbc0bda92	-0.008535998
84	0xbd5aba82	-0.053400524
85	0xbda8a609	-0.08234794
86	0xbc3818f8	-0.011236422
87	0x3d82e0eb	0.06390556
88	0x3d1aef99	0.037826154
89	0xbdaf79b8	-0.08568138
90	0x3dc9b948	0.09849793
91	0x3e1198a6	0.14218387
92	0x3dab33a0	0.08359456
93	0xbd2e74ed	-0.042591978
94	0xbcc245d0	-0.02371493
95	0x3e4a23fa	0.19740286
96	0x3d86daac	0.06584677
97	0xbdf7a755	-0.12092463
98	0xbe2eb1cb	-0.1706001
99	0xbe2dffd2	-0.16992119
100	0x3daeccf3	0.08535185
101	0x3d021bf9	0.031764958
102	0xbdfc28b7	-0.12312453
103	0x3ca18784	0.01971794
104	0x3de439f4	0.11143866
105	0x3d1d8812	0.038459845
106	0xbdc3f404	-0.09568027
107	0xbe0b87f0	-0.13626075
108	0xbdc81438	-0.097694814
109	0x3dd16ed4	0.10226217
110	0xbd54a740	-0.051917315
111	0xbddb656e	-0.107127056
112	0xbd2dddc5	-0.042447824
113	0xbe04c749	-0.12966646
114	0x3d6a6ddc	0.057233676
115	0xbe447a94	-0.19187385
116	0xbe0607e1	-0.13088943
117	0xbe2c2a89	-0.16813101
118	0xbc94b6be	-0.018153545
119	0xbd7fb7a7	-0.062431004
120	0xbe17e214	-0.14832336
121	0x3d17e93c	0.037087664
122	0x3d50b375	0.050952394
123	0xbd4e4621	-0.05035985
124	0xbe3a88fc	-0.18216318
125	0x3d2bf5da	0.04198251
126	0xbd0c11e0	-0.034196734
127	0xbd00fc90	-0.031490862
128	0x3cd21331	0.025643917
129	0x3d30b24d	0.04313879
130	0xbde9a093	-0.1140758
131	0xbbcc6f53	-0.006238857
132	0x3d9ff81f	0.07810997
133	0x3d869abf	0.06572484
134	0x3d252a9f	0.04032385
135	0xbcd932d5	-0.026513496
136	0xbd80a5ee	-0.062816486
137	0xbdfce761	-0.123488195
138	0xbe3c6f83	-0.18401913
139	0xbdc01905	-0.09379772
140	0xbd5c6252	-0.053804703
141	0xbd082bd7	-0.033244934
142	0x3d0945e4	0.03351392
143	0x3d5005dd	0.05078684
144	0x3b3eb637	0.0029100308
145	0xbd8162fc	-0.06317708
146	0xbc7619fb	-0.015020843
147	0x3de02416	0.10944383
148	0x3dc678af	0.09690987
149	0x3ca34cf4	0.019934155
150	0xbb80184a	-0.0039091455
151	0x3d3c6fbf	0.046005007
152	0xbdc69618	-0.09696597
153	0xbd5b9bf3	-0.05361552
154	0x3c6c2c66	0.014414882
155	0x3ca13179	0.01967691
156	0x3d61cb2f	0.05512541
157	0x3c7e109d	0.015506891
158	0x39758e6c	0.00023418077
159	0xbd33d502	-0.043904312
160	0x3e4ded7a	0.20110121
161	0xbdf9250d	-0.1216527
162	0xbe5cf59f	-0.21578072
163	0xbda8527e	-0.08218859
164	0x3dd02d03	0.10164835
165	0x3e72dd1b	0.23717158
166	0x3d4ddad5	0.050257523
167	0x3d33e043	0.043915045
168	0xbc8dcecd	-0.017310524
169	0xbe5f9906	-0.21835718
170	0x3db16aa4	0.08662918
171	0xbcab4ef7	-0.020911677
172	0x3dd2d6c3	0.10294869
173	0x3c198069	0.009368994
174	0xbdbc1aa3	-0.09184768
175	0xbdd0dd66	-0.101984784
176	0xbd70a0cd	-0.0587471
177	0x3cc4da97	0.024030013
178	0x3ce55a3b	0.027997127
179	0x3d8c7b55	0.06859461
180	0xbded35dc	-0.115825385
181	0xbbd59632	-0.006518149
182	0xbcba3c4f	-0.022733836
183	0xbc24b58b	-0.010053049
184	0xbc8e28c4	-0.017353423
185	0x3c5f2ab9	0.013621026
186	0xbd3632b8	-0.044481963
187	0xbe1cff51	-0.1533177
188	0x3da8fc21	0.08251215
189	0x3bd3fb8f	0.006469197
190	0xbd51aa34	-0.05118771
191	0x3da5f297	0.08102911
192	0xbb8b97c8	-0.004260037
193	0xbd477c2b	-0.0487024
194	0x3d364700	0.044501305
195	0xbe6744a5	-0.2258478
196	0xbe92203d	-0.2854022
197	0xbe87464e	-0.26420826
198	0xbe470ff5	-0.19439681
199	0xbe13ad4e	-0.14421579
200	0xbd5b375b	-0.053519588
201	0x3d8d33c9	0.06894643
202	0xbdbc67a2	-0.09199454
203	0xbdbf5667	-0.09342652
204	0xbd415edb	-0.0472096
205	0x3d92b345	0.07163099
206	0x3cd1180c	0.025524162
207	0x3baf19a2	0.005343632
208	0x3dee5e9e	0.116391405
209	0xbd88cc11	-0.066795476
210	0xbc69dd89	-0.0142740095
211	0xbd938a06	-0.0720406
212	0xbadc98b9	-0.0016830183
213	0xbc49b27f	-0.012310623
214	0x3e18a5f0	0.1490705
215	0x3ead4ce8	0.33847737
216	0xbd5cad99	-0.053876493
217	0x3dd45897	0.1036846
218	0x3e54ced1	0.20782019
219	0xbd4cbb10	-0.049983084
220	0x3d956f6f	0.07296645
221	0xbe75f965	-0.24020918
222	0xbe758f3b	-0.2398042
223	0xbe9c038e	-0.30471462
224	0xbd36454e	-0.044499688
225	0xbce693ee	-0.02814671
226	0xbc2293ec	-0.009922963
227	0xbcf22448	-0.029558316
228	0xbce6aa5c	-0.028157406
229	0x3d519062	0.051163085
230	0x3d0e232a	0.034701504
231	0xbd82cdc5	-0.06386904
232	0x3dc61e77	0.096737795
233	0xbb7a7084	-0.0038214037
234	0xbdfd5b36	-0.12370913
235	0xbb5633a7	-0.0032684596
236	0x3c9faaff	0.019490717
237	0x3dc9b62d	0.098492004
238	0xbb03b210	-0.0020095147
239	0xbbff298f	-0.0077869366
240	0x3cd9c8c8	0.026584998
241	0xbd9be9dc	-0.076129645
242	0x3d588878	0.05286452
243	0x3cb3aac4	0.021932013
244	0xbd8c4d57	-0.06850689
245	0x3da605d1	0.08106578
246	0x3d5ce6aa	0.053930916
247	0xbc350395	-0.011048217
248	0xbe4558c9	-0.1927215
249	0xbcb42532	-0.021990392
250	0xbc105a4b	-0.00881059
251	0xbd50fdb3	-0.051023196
252	0x3c65d5ba	0.014028007
253	0x3d5d5081	0.054031853
254	0x3df330bd	0.118745305
255	0xb907fbee	-0.00012968454

conv2.bias f4 [20]
0	0x3d6b1780	0.05739546
1	0x3e206881	0.15664865
2	0x3dd947ba	0.10609384
3	0xbdf6fa94	-0.12059513
4	0xbd813001	-0.06307984
5	0x3de05e13	0.10955443
6	0x3e048a74	0.1294344
7	0xbc9cefd4	-0.019157328
8	0xbc9badd0	-0.019003779
9	0xbe9d7e63	-0.30760488
10	0x3d51464d	0.051092435
11	0x3d950d25	0.07277898
12	0x3d72765a	0.0591949
13	0xbe9d4a91	-0.30720952
14	0x3d0ff00c	0.035141036
15	0x3db59b3e	0.08867501
16	0x3d88a2da	0.066716865
17	0xbbdf8957	-0.006821792
18	0xbe32eb6d	-0.1747262
19	0xbc3c8866	-0.011507129

fc1.weight f4 [50, 320]
0	0x3c120b88	0.008913882
1	0x3d9be0e1	0.076112516
2	0x3d0235e4	0.031789675
3	0x3de861f8	0.11346811
4	0xbcd27f1b	-0.025695374
5	0xbcf3ab5d	-0.029744798
6	0xbd470a39	-0.048593733
7	0x3ce97641	0.02849877
8	0xbdc809f3	-0.09767523
9	0xbc888e59	-0.01666944
10	0x3d3a78c3	0.045525324
11	0x3c7a11d9	0.015263044
12	0xbc515aba	-0.012777979
13	0x3d52eb2f	0.05149382
14	0x3bc4c7f3	0.006005281
15	0xbd48148f	-0.04884773
16	0x3cd1674c	0.025561951
17	0x3d058156	0.032594047
18	0x3bb3970a	0.0054806517
19	0xbd8f806b	-0.07006916
20	0x3d8b7092	0.068085805
21	0x3d2a0c0e	0.041515402
22	0x3cdb8422	0.026796404
23	0x3d7ded0d	0.061993647
24	0x3e0734b3	0.13203697
25	0x3c89185e	0.016735252
26	0xbc1e06c3	-0.009645167
27	0xbd245191	-0.04011685
28	0xbdf451b4	-0.11929646
29	0xbdbb5c56	-0.09148471
30	0xbdff39d9	-0.124622054
31	0xbd942bb7	-0.072349004
32	0x3a9919be	0.0011680645
33	0xbd98c6da	-0.07459803
34	0xbcdb9daa	-0.026808579
35	0xbe44719b	-0.19183962
36	0xbcf11394	-0.02942828
37	0x3ce6dbec	0.028181039
38	0x3d9d29a6	0.076739594
39	0xbda3eab6	-0.08003752
40	0xbd98eb5c	-0.07466766
41	0x3ccbbbfe	0.024869915
42	0x3d61e7c7	0.05515268
43	0x3c0de2a9	0.008659997
44	0x3d9066e0	0.07050872
45	0x3d4a1dd1	0.04934484
46	0xbca48dae	-0.02008709
47	0xbcfa6d90	-0.030569822
48	0x3db90c10	0.09035504
49	0xbd16e328	-0.036837727
50	0xbbfa3085	-0.0076351785
51	0xbd75f776	-0.06005045
52	0x3d88a140	0.06671381
53	0xbd5c57ed	-0.05379479
54	0x3d0aa1f9	0.033845875
55	0xbdc952ff	-0.098302834
56	0x3d51c970	0.051217496
57	0xbd806183	-0.06268599
58	0xbcb21b58	-0.021741554
59	0x3d5dd50b	0.05415825
60	0xbadcbe03	-0.0016841296
61	0xbcf0c47f	-0.029390572
62	0xbda0a9a7	-0.078448586
63	0xbd4bdf6f	-0.04977363
64	0xbc504060	-0.012710661
65	0xbcdf6cc9	-0.027273552
66	0xbd020561	-0.03174341
67	0xbcd68ebe	-0.026191112
68	0xba845718	-0.0010096757
69	0xbd1ab7ea	-0.03777305
70	0xbd07bd30	-0.033139408
71	0x3c8817da	0.016612936
72	0x3c9f8fa6	0.019477677
73	0x3d924722	0.07142474
74	0x3c281d67	0.010260916
75	0x3ca40bf6	0.020025235
76	0x3daaaa20	0.0833323
77	0xbd3bf0ea	-0.04588405
78	0xbd8e4126	-0.0694602
79	0xbd967022	-0.073456064
80	0xbd9f94d6	-0.0779206
81	0xbdaef2f2	-0.08542432
82	0xbbac5e3f	-0.0052602584
83	0x3d461346	0.048358224
84	0x3d217cfe	0.039425842
85	0xbda81af0	-0.08208263
86	0x3ca5e56e	0.020251002
87	0x3d748fe3	0.059707534
88	0x3da468ef	0.08027827
89	0xbd63bad1	-0.055598084
90	0x3d3b8059	0.0457767
91	0xbca2a3a5	-0.019853422
92	0xbda2e7e8	-0.07954389
93	0xbdfc3123	-0.123140596
94	0x3d977e2b	0.073971115
95	0x3d35da85	0.04439785
96	0xbdcdfbbb	-0.100577794
97	0xbd09c7b5	-0.03363772
98	0x3ceda219	0.029007958
99	0x3d287de4	0.041135684
100	0xbd54e65b	-0.051977497
101	0xbd0243ca	-0.03180293
102	0x3ce8ce0e	0.028418567
103	0x3d1ad0c0	0.037796736
104	0xbdccc473	-0.09998407
105	0x3caefd78	0.021361098
106	0x3da49ca4	0.08037689
107	0x3cafa7df	0.021442352
108	0x3acb6b43	0.0015519637
109	0x3ce0f4fe	0.027460571
110	0x3dbe1c1f	0.092827074
111	0xbdb179b4	-0.08665791
112	0xbd4cb8dd	-0.049980987
113	0x3a90d95b	0.0011051105
114	0x3bd541e4	0.006508099
115	0x3dbbca94	0.09169498
116	0x3ad3994f	0.0016143712
117	0xbc44d4b5	-0.012013604
118	0x3d5adc99	0.053433035
119	0xbdb97cdc	-0.09057018
120	0xbdbc9cf7	-0.09209626
121	0xbcd0d119	-0.02549033
122	0x3d8808b9	0.06642289
123	0x3c3c3304	0.011486772
124	0xbd425358	-0.047442764
125	0xbd56223c	-0.052278742
126	0xbc429c52	-0.01187809
127	0x3c10123c	0.00879341
128	0x3db26d0a	0.08712204
129	0xbce1c058	-0.027557537
130	0xbab4000b	-0.0013732923
131	0x3d227102	0.039658554
132	0xbd5a83e6	-0.053348444
133	0x3ca6003b	0.020263782
134	0x3cb4823e	0.02203476
135	0xbdeed649	-0.116619654
136	0xbe010c17	-0.12602268
137	0x3d823937	0.06358569
138	0x3d38238c	0.044955775
139	0xbd7e4ca9	-0.062084828
140	0x3daf350a	0.08555038
141	0xbbf69b4f	-0.0075258384
142	0x3cd4ebd4	0.025991358
143	0xbd63c58c	-0.055608317
144	0x3dad9699	0.0847599
145	0xbd008ef5	-0.031386334
146	0x3d5038c2	0.05083538
147	0xbd60520f	-0.054765757
148	0x3b6f142d	0.0036480532
149	0xbd1d9ff5	-0.038482625
150	0xbd95bd58	-0.07311505
151	0xbcee2542	-0.0290705
152	0x3b8546f0	0.0040672943
153	0xbcbd90ed	-0.023140395
154	0x3d19d1fe	0.03755378
155	0xbd61a6ee	-0.055090837
156	0x3d38a044	0.045074716
157	0x3ba71145	0.0050984942
158	0x3c97b642	0.018519524
159	0xbd9eb31b	-0.077490054
160	0x3bafbe6b	0.0053632758
161	0xbd8a3bf9	-0.0674972
162	0xbd09befe	-0.03362941
163	0x3b980fbb	0.004640547
164	0xbc835d21	-0.016035618
165	0xbc873f3d	-0.016509647
166	0xbabf837c	-0.0014611329
167	0x3dd6ee9e	0.10494731
168	0x3d5c6a20	0.053812146
169	0x3d82186a	0.06352313
170	0xbd7b12cf	-0.061297234
171	0xbd21f5f7	-0.03954121
172	0xbd9e299a	-0.077227786
173	0xbe1a383b	-0.15060513
174	0x3c839b28	0.016065195
175	0x3d99a683	0.07502463
176	0xbccfe650	-0.025378376
177	0x3d4949a0	0.04914248
178	0x3b0a5ef3	0.0021113723
179	0xbdf889eb	-0.12135681
180	0xbbd189a9	-0.006394584
181	0xbc578f70	-0.013156757
182	0xbd0e9410	-0.034809172
183	0xbd1607b0	-0.036628425
184	0xbc45d859	-0.012075507
185	0x3d961c82	0.07329656
186	0x3dabf8e6	0.08397083
187	0x3dee200b	0.116272055
188	0xbd6cde71	-0.057829324
189	0xbc5799e3	-0.013159248
190	0x3db5e496	0.0888149
191	0x3dfe7ffe	0.12426756
192	0x3d07dd60	0.033170104
193	0x3bc546d3	0.006020406
194	0x3b633c1f	0.0034673286
195	0x3ddd6de5	0.10811976
196	0xbd9ea2a8	-0.07745868
197	0xbc778293	-0.015106815
198	0xbdbd2167	-0.092348866
199	0xbc10bcf0	-0.008834109
200	0x3d1a6df1	0.037702505
201	0xbc361fd8	-0.011115991
202	0x3cf6fba3	0.030149287
203	0x3c4d9ff2	0.012550341
204	0x3dad8429	0.08472473
205	0x3d890b65	0.066916265
206	0x3d974074	0.0738534
207	0x3d86e892	0.06587328
208	0xbd998afc	-0.07497212
209	0x3d1b8805	0.037971515
210	0x3becfa84	0.007232012
211	0xbd99e03d	-0.07513473
212	0x3dbd7a40	0.09251833
213	0xbc599795	-0.013280769
214	0xbc3f2d8d	-0.011668575
215	0xbdaa8155	-0.083254494
216	0xbc8daee6	-0.017295312
217	0x3af3b1ea	0.0018592451
218	0x3d3b840e	0.045780234
219	0xbd5114fc	-0.051045403
220	0xbd5d438f	-0.054019507
221	0xbb38b83c	-0.0028185984
222	0x3dc68944	0.0969415
223	0xbd10e0fe	-0.03537082
224	0x3c4852bd	0.012226758
225	0xbd8d2c52	-0.06893219
226	0xbb7688fc	-0.003761827
227	0x3d43fcf5	0.04784866
228	0xbafe9610	-0.0019423384
229	0xbda1d240	-0.0790143
230	0xbc13e6aa	-0.009027163
231	0xbd3c8a15	-0.046030123
232	0x3d90829d	0.070561625
233	0x3cd24979	0.0256698
234	0x3d15577f	0.036460396
235	0x3d82b28c	0.06381711
236	0xbe2d0591	-0.16896655
237	0x3c5aad03	0.013346913
238	0xbe05e257	-0.13074623
239	0xbd0e284e	-0.034706406
240	0xbce83b05	-0.028348455
241	0xbd2e7fce	-0.042602353
242	0xbbe6d855	-0.0070448318
243	0x3dab17d3	0.083541535
244	0x3c81ba86	0.015836012
245	0xbd7aa842	-0.06119562
246	0xbc903671	-0.017604085
247	0x3d6e3c00	0.05816269
248	0x3de15112	0.11001791
249	0xbd283cf3	-0.04107375
250	0xbb40e3ec	-0.0029432727
251	0xbcfdb4bd	-0.030969972
252	0xbbf1cf9f	-0.0073794867
253	0x3d328d2d	0.043591667
254	0xbe344c30	-0.17607188
255	0x3cee2eab	0.029074987

fc1.bias f4 [50]
0	0x3cd622d4	0.026139654
1	0x3d012ffc	0.031539902
2	0xbd343bfe	-0.044002526
3	0x3d2c6fa6	0.042098664
4	0xbc8ef141	-0.017449023
5	0x3cebfa3a	0.02880584
6	0x3d2e0456	0.042484604
7	0xbd5656ea	-0.05232898
8	0x3d5c132c	0.05372922
9	0xbcd53f72	-0.02603123
10	0x3d1243ba	0.03570912
11	0x3b3fc388	0.0029260833
12	0xbd07bd81	-0.03313971
13	0x3c6fdb84	0.014639739
14	0xbd13d147	-0.036088254
15	0x3d4abdd9	0.04949746
16	0x3d40b091	0.047043387
17	0xbc04e053	-0.008110124
18	0x3ce13348	0.027490273
19	0xbb7fbf29	-0.0039023852
20	0xbd625409	-0.055255923
21	0x3d48bbcc	0.049007222
22	0x3cc081f2	0.023499463
23	0xbd04fc3f	-0.032467123
24	0xbcd4e034	-0.025985815
25	0xbca737e3	-0.020412391
26	0x3cd86d40	0.026419282
27	0x3b791812	0.0038008732
28	0xbce10d70	-0.027472228
29	0x3be86c28	0.0070929714
30	0x3d33c551	0.043889347
31	0xbd398190	-0.045289576
32	0xbca5ce4d	-0.020239973
33	0xbc88cc38	-0.016698942
34	0xbd4ab270	-0.049486578
35	0x3d01d61f	0.031698342
36	0xba7e6400	-0.0009704232
37	0xbd1a7782	-0.037711628
38	0xbd5bae2c	-0.0536329
39	0x3cf472c0	0.029839873
40	0xbcf3bc18	-0.029752776
41	0x3d343b3b	0.0440018
42	0x3c3b01da	0.011414016
43	0xbd394752	-0.045234032
44	0xbd3ecd85	-0.046582717
45	0xbd59f766	-0.053214453
46	0x3d3f24c3	0.046665918
47	0xbb8df00a	-0.0043315934
48	0xbd0c59c8	-0.03426531
49	0x3d2c10c0	0.04200816

fc2.weight f4 [10, 50]
0	0x3f28519d	0.6574953
1	0x3f1cd1ef	0.61257833
2	0xbf0569c8	-0.52114534
3	0x3f3bddb9	0.73385197
4	0xbf00d10f	-0.50319
5	0xbed59068	-0.41711736
6	0xbe77e519	-0.24208488
7	0xbe598b62	-0.21244577
8	0x3f4016b8	0.75034666
9	0x3f25f569	0.6482759
10	0x3f48ca61	0.78433806
11	0x3f39d979	0.7259746
12	0xbf019af5	-0.5062707
13	0xbf1214e2	-0.57063115
14	0x3f315a27	0.69278187
15	0x3f2d830d	0.6777809
16	0x3f3f2c9a	0.7467743
17	0x3f41aa7b	0.7565076
18	0xbee50970	-0.44733763
19	0xbf08faef	-0.53507894
20	0xbf0ce62e	-0.55038726
21	0x3f2a3308	0.6648412
22	0xbe9ef262	-0.31044298
23	0xbf0b1165	-0.54323417
24	0xbf0de321	-0.55424696
25	0xbeeec584	-0.46635067
26	0x3f35fc65	0.7108825
27	0xbf29c74d	-0.66319734
28	0xbeeb91e9	-0.46009758
29	0xbed24f0c	-0.41075933
30	0xbecd0713	-0.4004446
31	0xbeebd4a0	-0.46060658
32	0xbcdf55c9	-0.027262585
33	0xbf29affe	-0.6628417
34	0xbeb36192	-0.35035378
35	0x3f407460	0.75177574
36	0xbf0b6c58	-0.54462194
37	0xbee126df	-0.4397497
38	0xbf023c11	-0.50872904
39	0x3f418d97	0.75606674
40	0x3f3b87a3	0.7325384
41	0xbeabf6d0	-0.3358674
42	0xbee249f0	-0.44197035
43	0xbecd3117	-0.40076515
44	0xbf257af2	-0.64640725
45	0xbf1ea248	-0.6196637
46	0xbeecc059	-0.462405
47	0xbf0fc312	-0.5615703
48	0xbed3f4cd	-0.41397706
49	0xbe976710	-0.29570818
50	0xbf13f17c	-0.5779035
51	0x3f36c612	0.7139598
52	0xbf4043c5	-0.7510341
53	0x3f1d04a6	0.6133522
54	0x3f56613e	0.8374213
55	0x3f270b69	0.65251786
56	0x3f38ef59	0.72240216
57	0xbf065a6a	-0.5248171
58	0xbf0f0b32	-0.5587646
59	0xbf112860	-0.5670223
60	0x3f3c28dc	0.73499846
61	0xbe606771	-0.2191446
62	0xbee66e06	-0.45005816
63	0xbe79e8c2	-0.24405196
64	0xbe2dae14	-0.16960937
65	0xbecb0c69	-0.39657906
66	0xbf0d1a26	-0.55118024
67	0xbf1f7560	-0.62288475
68	0xbf209421	-0.62726027
69	0xbe4ae6e5	-0.19814642
70	0xbf06981e	-0.5257586
71	0xbf1543fe	-0.5830687
72	0xbeebae50	-0.46031427
73	0xbeef77d3	-0.46771106
74	0x3f3afbbf	0.73040384
75	0x3f39b4dd	0.725416
76	0xbf2a4e7d	-0.66526014
77	0x3f40d8da	0.7533089
78	0xbeae0f50	-0.33996058
79	0x3f47b2d6	0.78007257
80	0xbf0a2052	-0.53955567
81	0xbebd4e9c	-0.36974037
82	0xbf290c3e	-0.66034305
83	0xbf0b2a7c	-0.543617
84	0xbf10c6d1	-0.5655337
85	0xbf16bc3c	-0.5888097
86	0xbe32ac96	-0.17448649
87	0x3f3f03f9	0.74615437
88	0xbf04b74a	-0.51842177
89	0xbee3a479	-0.4446142
90	0xbf1ca5b1	-0.61190325
91	0x3f4b29cb	0.79360646
92	0xbf11a307	-0.56889385
93	0xbd1478a6	-0.03624787
94	0xbeb16149	-0.34644535
95	0xbf08d690	-0.53452396
96	0xbeeec386	-0.46633548
97	0x3f544d08	0.8293004
98	0x3f25ea69	0.64810807
99	0xbefcb1cd	-0.493544
100	0x3f3036aa	0.6883341
101	0x3f17e19a	0.59328616
102	0xbcc686f7	-0.024234278
103	0xbe529d92	-0.20567921
104	0xbecc2470	-0.3987155
105	0xbeda4897	-0.42633507
106	0x3dc2c416	0.09510057
107	0xbe778f95	-0.24175866
108	0xbed659d9	-0.41865423
109	0xbf0a30cc	-0.5398071
110	0xbf3994d2	-0.72492707
111	0x3f39106f	0.722907
112	0xbeef3a95	-0.46724382
113	0xbe46d7b0	-0.19418216
114	0xbebd9748	-0.3702948
115	0x3f2805e6	0.65634
116	0x3f2da05a	0.678228
117	0xbe36abef	-0.17839025
118	0xbe1c4310	-0.15259957
119	0x3f406564	0.7515471
120	0x3f0928c6	0.5357784
121	0xbe9bc39a	-0.3042267
122	0xbecdffe4	-0.40234292
123	0xbeddf4d2	-0.43350846
124	0xbeca5603	-0.39518747
125	0x3f3b3914	0.7313397
126	0x3f068ce8	0.52558756
127	0xbef068dd	-0.46955004
128	0x3f31d730	0.69468975
129	0x3f39861f	0.7247028
130	0xbee2d4c7	-0.4430296
131	0x3f3a1723	0.72691554
132	0xbf00062d	-0.50009423
133	0x3e8ede0a	0.27903777
134	0xbeddf708	-0.43352532
135	0xbf042a1c	-0.51626754
136	0xbee66985	-0.4500238
137	0xbec01b6f	-0.3752093
138	0x3e12eb1c	0.143475
139	0x3f20e434	0.6284821
140	0xbeb0c452	-0.3452478
141	0xbe8ca6a7	-0.27470896
142	0xbeb02a88	-0.3440745
143	0xbe9676d4	-0.29387534
144	0x3f51689e	0.8180026
145	0x3f44a088	0.7680745
146	0x3f1f5d0e	0.62251365
147	0x3f478bbb	0.77947587
148	0x3ebf0378	0.37307334
149	0xbed2e65c	-0.41191375
150	0x3f3e6e3a	0.7438694
151	0xbf1195e4	-0.5686934
152	0xbe59e6db	-0.2127947
153	0xbf1206e5	-0.5704177
154	0xbead314b	-0.3382667
155	0xbf065dad	-0.5248669
156	0xbf0289f2	-0.5099174
157	0xbe106c5e	-0.14103839
158	0xbe94b2ee	-0.29042763
159	0xbed2c6c6	-0.41167277
160	0xbf17a527	-0.5923638
161	0xbe1be49a	-0.15223923
162	0xbde69795	-0.11259381
163	0x3f3572e1	0.70878416
164	0x3f3406f1	0.7032309
165	0xbeeba4a9	-0.46024063
166	0xbeacdeb9	-0.33763674
167	0xbf032b17	-0.51237625
168	0xbeed1527	-0.463052
169	0x3f4cdf03	0.8002779
170	0xbe1537c6	-0.14572057
171	0xbebaa8d0	-0.3645692
172	0xbee9db49	-0.45675114
173	0xbeb54edd	-0.3541173
174	0xbed2d802	-0.41180426
175	0xbd902156	-0.07037608
176	0xbf28a735	-0.6588014
177	0x3f47de15	0.78073245
178	0xbe344e56	-0.17608008
179	0xbe94f19d	-0.29090586
180	0xbe954050	-0.2915063
181	0xbe507708	-0.20357907
182	0xbeeb22a5	-0.4592487
183	0x3f447225	0.7673667
184	0xbebb21c0	-0.36549187
185	0xbf12a91c	-0.5728929
186	0x3f6a64a7	0.91559833
187	0xbe9e5a8c	-0.30928457
188	0x3f62acca	0.88544905
189	0x3eb77f2f	0.3583922
190	0x3f4a9b48	0.7914319
191	0xbe84f225	-0.25965992
192	0x3f6bcf42	0.92113125
193	0x3f5ca89a	0.86194766
194	0x3f6134c1	0.8797112
195	0x3f23bde4	0.63961625
196	0xbda3c8bc	-0.079972714
197	0x3dad089d	0.084489085
198	0xbeacfd05	-0.3378679
199	0xbeadaa55	-0.33919016
200	0xbed26bfd	-0.41098014
201	0x3f195124	0.59889436
202	0x3ee2708d	0.44226494
203	0xbefa8e22	-0.48936564
204	0x3f47c88c	0.78040385
205	0xbea7dc9d	-0.32785502
206	0x3efacf5d	0.4898633
207	0x3f2ae324	0.6675284
208	0xbf04652f	-0.51716894
209	0x3f452083	0.77002734
210	0xbee674b2	-0.45010906
211	0xbecbaa76	-0.3977849
212	0x3f52f3d4	0.824033
213	0xbe94718f	-0.28992888
214	0xbe91df59	-0.28490713
215	0xbc131b61	-0.008978696
216	0xbf00669b	-0.50156564
217	0xbed82c49	-0.42221287
218	0x3f2c415f	0.6728725
219	0xbe047971	-0.12936951
220	0xbed3d5d7	-0.41374084
221	0x3f132504	0.57478356
222	0xbea1cecc	-0.31603086
223	0x3f5b9ace	0.8578309
224	0xbe127db1	-0.1430576
225	0xbeafe42c	-0.3435377
226	0x3f113247	0.5671734
227	0x3f237cfa	0.63862574
228	0x3f3a9bdf	0.7289409
229	0x3f252d1c	0.64521956
230	0x3f603c89	0.8759237
231	0x3f22910e	0.63502586
232	0x3f3a24b3	0.7271225
233	0xbef51183	-0.47864923
234	0x3f45d8a9	0.7728372
235	0xbf069481	-0.5257035
236	0xbeee38f2	-0.4652782
237	0x3d5cb538	0.05388376
238	0xbf0e6efe	-0.5563811
239	0xbdc4ed64	-0.09615591
240	0xbe946029	-0.28979614
241	0x3f3fa640	0.7486305
242	0xbef35d84	-0.47532284
243	0x3d92546f	0.07145011
244	0xbede50d9	-0.43421057
245	0xbf0a2e1c	-0.5397661
246	0x3f2cb121	0.6745778
247	0xbedf4888	-0.43610024
248	0xbe1fe88d	-0.15616055
249	0xbe9a4ab6	-0.30135125
250	0xbf0a3f04	-0.54002404
251	0xbf014633	-0.5049774
252	0xbede0fbc	-0.4337138
253	0xbe8bc791	-0.27300695
254	0xbea5e954	-0.32404578
255	0x3f2bd8e6	0.67127836

fc2.bias f4 [10]
0	0x3d2d23d8	0.04227051
1	0x3f4642cd	0.7744568
2	0xbe1d3fa7	-0.15356313
3	0x3eeb1f47	0.459223
4	0xbf276ab3	-0.65397185
5	0x3d976f35	0.07394258
6	0xbf0a7400	-0.5408325
7	0xbe99114b	-0.29896006
8	0x3e23df12	0.16003063
9	0x3e696e88	0.2279607

bn1.weight f4 [50]
0	0x3f800000	1.0
1	0x3f800000	1.0
2	0x3f800000	1.0
3	0x3f800000	1.0
4	0x3f800000	1.0
5	0x3f800000	1.0
6	0x3f800000	1.0
7	0x3f800000	1.0
8	0x3f800000	1.0
9	0x3f800000	1.0
10	0x3f800000	1.0
11	0x3f800000	1.0
12	0x3f800000	1.0
13	0x3f800000	1.0
14	0x3f800000	1.0
15	0x3f800000	1.0
16	0x3f800000	1.0
17	0x3f800000	1.0
18	0x3f800000	1.0
19	0x3f800000	1.0
20	0x3f800000	1.0
21	0x3f800000	1.0
22	0x3f800000	1.0
23	0x3f800000	1.0
24	0x3f800000	1.0
25	0x3f800000	1.0
26	0x3f800000	1.0
27	0x3f800000	1.0
28	0x3f800000	1.0
29	0x3f800000	1.0
30	0x3f800000	1.0
31	0x3f800000	1.0
32	0x3f800000	1.0
33	0x3f800000	1.0
34	0x3f800000	1.0
35	0x3f800000	1.0
36	0x3f800000	1.0
37	0x3f800000	1.0
38	0x3f800000	1.0
39	0x3f800000	1.0
40	0x3f800000	1.0
41	0x3f800000	1.0
42	0x3f800000	1.0
43	0x3f800000	1.0
44	0x3f800000	1.0
45	0x3f800000	1.0
46	0x3f800000	1.0
47	0x3f800000	1.0
48	0x3f800000	1.0
49	0x3f800000	1.0

bn1.bias f4 [50]
0	0x00000000	0.0
1	0x00000000	0.0
2	0x00000000	0.0
3	0x00000000	0.0
4	0x00000000	0.0
5	0x00000000	0.0
6	0x00000000	0.0
7	0x00000000	0.0
8	0x00000000	0.0
9	0x00000000	0.0
10	0x00000000	0.0
11	0x00000000	0.0
12	0x00000000	0.0
13	0x00000000	0.0
14	0x00000000	0.0
15	0x00000000	0.0
16	0x00000000	0.0
17	0x00000000	0.0
18	0x00000000	0.0
19	0x00000000	0.0
20	0x00000000	0.0
21	0x00000000	0.0
22	0x00000000	0.0
23	0x00000000	0.0
24	0x00000000	0.0
25	0x00000000	0.0
26	0x00000000	0.0
27	0x00000000	0.0
28	0x00000000	0.0
29	0x00000000	0.0
30	0x00000000	0.0
31	0x00000000	0.0
32	0x00000000	0.0
33	0x00000000	0.0
34	0x00000000	0.0
35	0x00000000	0.0
36	0x00000000	0.0
37	0x00000000	0.0
38	0x00000000	0.0
39	0x00000000	0.0
40	0x00000000	0.0
41	0x00000000	0.0
42	0x00000000	0.0
43	0x00000000	0.0
44	0x00000000	0.0
45	0x00000000	0.0
46	0x00000000	0.0
47	0x00000000	0.0
48	0x00000000	0.0
49	0x00000000	0.0

bn1.running_mean f4 [50]
0	0xbc99cb4e	-0.018773701
1	0xbd99d795	-0.07511822
2	0xbd582b0e	-0.052775435
3	0xbd7a9b4b	-0.061183255
4	0xbd60e4a3	-0.054905545
5	0xbd57d776	-0.052695714
6	0xbd344360	-0.044009566
7	0xbca20ca5	-0.01978142
8	0xbd1c0158	-0.03808722
9	0x3c336a5d	0.010950652
10	0xbd74a978	-0.05973193
11	0xbd296dfd	-0.04136466
12	0x3b6b0eda	0.0035867007
13	0x3c1b0055	0.009460528
14	0x3c2f1fc2	0.010688724
15	0xbc9b4de2	-0.018958036
16	0xbc084b06	-0.008318668
17	0xbd065bb0	-0.032802284
18	0xbcef4adb	-0.029210499
19	0xb9e1e380	-0.00043084845
20	0xbce1f425	-0.027582237
21	0xbd4afe16	-0.04955872
22	0xbc015bbb	-0.007895405
23	0xbd043fc1	-0.032287363
24	0xbd46b789	-0.048514877
25	0xbd06c10e	-0.032898955
26	0xbd4877a8	-0.048942238
27	0xbd08052d	-0.03320806
28	0x3b540520	0.0032351688
29	0xbd0a5210	-0.033769667
30	0x3d2f9558	0.042867035
31	0xbd557c45	-0.052120466
32	0xbccba7c4	-0.02486027
33	0xbc9303ed	-0.017946208
34	0xbbecb932	-0.0072242254
35	0xbc88969b	-0.016673377
36	0x3c9c58ca	0.019085307
37	0xbd0d234b	-0.034457486
38	0xbcda63a2	-0.026658837
39	0xbabe3d8d	-0.0014514193
40	0xbb08f0b3	-0.002089542
41	0xbd16bb69	-0.036799822
42	0x3ca72ec5	0.020408044
43	0x3cf842d3	0.030305302
44	0xbca82b1a	-0.020528365
45	0xbd672bf2	-0.056438394
46	0xbc8cebf0	-0.017202348
47	0xbd80aa40	-0.062824726
48	0xbdaf31e3	-0.08554437
49	0x3bb979d0	0.005660273

bn1.running_var f4 [50]
0	0x3f9b792c	1.2146354
1	0x3f9e9fb7	1.2392491
2	0x3f9a3373	1.2046951
3	0x3f9d6b6d	1.2298409
4	0x3fa1d0f2	1.264189
5	0x3fab6b28	1.3392076
6	0x3f9e1037	1.2348698
7	0x3f9da5ee	1.2316263
8	0x3facda0d	1.3504044
9	0x3fa56f60	1.2924614
10	0x3fb09cff	1.3797911
11	0x3f9ff7c2	1.2497485
12	0x3f9f007b	1.2422022
13	0x3fa5fd2d	1.2967888
14	0x3f8eeff8	1.1166983
15	0x3fa4aa6a	1.2864506
16	0x3fac9059	1.3481551
17	0x3f9b2616	1.2120998
18	0x3fa1e4f6	1.2647998
19	0x3f9e3a44	1.2361531
20	0x3f91c7e6	1.1389129
21	0x3f904f6a	1.1274235
22	0x3fa9e732	1.327368
23	0x3fa113c4	1.2584157
24	0x3faf4bdf	1.3695029
25	0x3fa057b7	1.2526768
26	0x3fa0fc04	1.2576909
27	0x3fb320da	1.39944
28	0x3f9e8336	1.2383792
29	0x3fa5f0e5	1.296414
30	0x3fab63aa	1.338979
31	0x3f95e0d4	1.1709237
32	0x3faab686	1.3336952
33	0x3fa334d5	1.2750498
34	0x3fa5bfc3	1.2949146
35	0x3fb8ae86	1.442826
36	0x3fb69642	1.4264605
37	0x3f9732cf	1.181238
38	0x3fa0cb75	1.256209
39	0x3fa269f3	1.2688583
40	0x3fa79066	1.3090942
41	0x3faac5d4	1.3341622
42	0x3f9cf120	1.2261086
43	0x3fa4c9e4	1.2874112
44	0x3f9cd4df	1.2252463
45	0x3f99b0b6	1.2007053
46	0x3f935a08	1.151185
47	0x3f9b4b62	1.213238
48	0x3fa3db53	1.2801307
49	0x3fa96c7e	1.3236234
